model_cnn.pth (torch, 434831 bytes, 8 tensors)

conv1.weight f4 [6, 3, 5, 5]
000000 54 49 85 bd 47 47 9c be 0f 7d 53 be fa db 94 bd
       -0.06508127 -0.3052313 -0.20653175 -0.0726852
000010 0e 23 97 bd 84 c0 09 3e 37 b5 9d 3d 81 22 25 3e
       -0.07379733 0.13452345 0.077005796 0.16126443
000020 51 73 bf bd 42 09 d6 3d 31 37 10 3e c1 0c fc 3d
       -0.09348167 0.104509845 0.14083554 0.1230712
000030 00 e8 5d 3e d8 5c 96 3d ee b3 c8 3d 25 4f 51 bd
       0.21670532 0.07341927 0.09799944 -0.05110087
000040 03 4b 49 3d d4 cc f5 3d 94 98 22 3c 1a 76 1e be
       0.049143802 0.120019585 0.009924073 -0.1547474
000050 7d e7 63 bd 49 32 1c be 20 4d d3 bd 61 e1 8f bc
       -0.055640686 -0.15253557 -0.10317445 -0.017563524
000060 e3 ed f8 3d 67 b9 9f 3c b8 55 81 be 2f 96 be bd
       0.12154748 0.019497586 -0.2526071 -0.09305989
000070 e8 b5 04 be 75 fd b6 3d c3 4b f2 3c 84 21 a9 bd
       -0.12960017 0.08935062 0.029577142 -0.08258346
000080 f1 68 46 3e 8b a0 1f bc 26 b7 97 bc d6 11 5c 3d
       0.1937597 -0.009742866 -0.01851995 0.053727947
000090 f1 ef 78 3e b0 02 f7 3d 04 75 81 3d 1b 0c de 3c
       0.2431028 0.120610595 0.06321147 0.027105382
0000a0 de 39 54 bc 58 ff 16 3d 7a d5 07 be 3e 53 4f bd
       -0.01295325 0.03686461 -0.13265029 -0.050616495
0000b0 e9 22 3d be 3a 02 a3 bc ce f0 a4 bc 96 a5 27 be
       -0.18470348 -0.019898523 -0.020134356 -0.1637176
0000c0 17 bb c8 3c 4e b4 1b 3d aa 82 c3 bd 92 34 5a be
       0.024503274 0.03801375 -0.095464066 -0.21309116
0000d0 0f a7 27 be bb 6b 20 be 57 2d 70 bc 3b a0 bc 3d
       -0.16372322 -0.15666096 -0.014659247 0.09210249
0000e0 30 b4 a5 bd c9 0b ff 3d f9 83 5d bd e9 0c 4a 3d
       -0.08091009 0.1245342 -0.054080937 0.04932872
0000f0 7c 9d 72 3b 9c 2e 6a 3e 8f 09 00 3e f7 5c e4 3d
       0.0037020138 0.22869343 0.12503646 0.11150544
000100 7a 2a ff 3d 95 cc 18 3d 8c ef bd 3d 10 f8 63 3d
       0.12459274 0.03730448 0.092742056 0.055656493
000110 bb b3 39 3d 6a 62 11 be 89 35 90 bc 5b 55 f6 bc
       0.04533742 -0.14197698 -0.017603653 -0.030069998
000120 a1 7c e7 bd aa 37 a2 bd 8b c8 46 3d d9 b8 be bd
       -0.11303068 -0.07920773 0.048531096 -0.09312601
000130 51 68 d0 bd f8 78 27 be bc 65 99 bd c2 a1 1f be
       -0.10176147 -0.1635474 -0.074901074 -0.1558905
000140 7f 21 94 bb 75 64 9a bd f6 87 8d 3d c1 b8 d3 3d
       -0.0045205946 -0.07538692 0.06910698 0.103379734
000150 12 b1 48 3d 97 c6 b0 3c 4d 2b d6 3d c0 5c 2b 3e
       0.048996992 0.02157907 0.10457478 0.167346
000160 01 9c cb 3d 82 6b 85 bc 17 c1 dd 3d 19 d8 1e 3e
       0.09941865 -0.016286615 0.108278446 0.15512122
000170 8a 87 be 3d 6e 97 d6 3d aa a2 20 3e dc 23 3f 3e
       0.09303196 0.10478102 0.15687051 0.18666023
000180 d4 5d 14 3e fb d9 e5 3c 5d 97 05 3e 16 95 13 3e
       0.14488918 0.028058043 0.13046022 0.1441234
000190 86 04 9d bc 9a 67 ab bc 6d e7 27 3d 7d eb fd 3d
       -0.019167196 -0.020923425 0.04099219 0.123984315
0001a0 aa b1 1b 3d bb 8d 32 be 5f 1f 8e 3c af ce f5 3d
       0.03801123 -0.17436878 0.017348943 0.120023124
0001b0 7b b5 90 bc 2b f6 6f bc a8 9f e9 bd 87 ca 8f 3c
       -0.017664662 -0.014646093 -0.11407405 0.017552627
0001c0 4a 0b 37 bc fc 07 a3 bc c0 c4 89 3d 02 a2 d8 bd
       -0.011172125 -0.019901268 0.0672698 -0.105777755
0001d0 ff 53 c7 bc 0f e2 9f bb 02 31 89 3d d3 18 f6 3b
       -0.024332045 -0.004879243 0.066988006 0.0075102835
0001e0 f7 cf f8 bd 1e 32 0d be 12 92 d7 bc c3 85 ec bb
       -0.12149041 -0.1378865 -0.026314769 -0.007218094
0001f0 94 0e b0 3d 5b 05 92 3d d9 d3 9c bd ab 8b 9f 3c
       0.085965306 0.07129928 -0.07657594 0.019475779
000200 bd 9e 21 3e 62 88 70 3c 9c d6 e0 bd 7d 03 85 bd
       0.1578321 0.014680954 -0.109784335 -0.06494806
000210 9a c2 21 bc ab a1 e3 3d 98 6b 41 3d 2d b4 85 bc
       -0.009873057 0.1111482 0.04722175 -0.016321266
000220 8a ce 48 bd 6d 08 e0 bc cc e4 9e 3c 28 6f bd 3c
       -0.049025096 -0.027347768 0.019396208 0.023124292
000230 2d 73 8c bd ef 8a c3 3c 7a 16 be 3d aa c3 59 3d
       -0.068579055 0.02386996 0.09281631 0.053165115
000240 5d fb e9 bd 23 1e 75 3d 92 70 81 3d 7c f9 bb bc
       -0.11424897 0.059843194 0.06320299 -0.022946112
000250 4e db 23 bd 72 f6 15 bd ce 96 d0 3b 96 95 dd bd
       -0.040004067 -0.03661198 0.0063656336 -0.10819547
000260 c9 cb 64 3d b9 2a 5e bd 5a d7 aa bd 41 d7 f3 bc
       0.055858407 -0.054239962 -0.08341856 -0.029765727
000270 1f ab 07 be ac 84 d2 3d 67 75 6f 3d 86 c5 ba 3c
       -0.13248871 0.102792114 0.058461573 0.022799265
000280 8b 93 6f 3d bf 41 a0 be f6 cc 8f 3d 58 c1 90 3b
       0.058490317 -0.3130016 0.07021515 0.0044175796
000290 98 dc 92 3d bc ff 30 3d 97 99 94 be 24 ca 5b 3e
       0.07170981 0.043212637 -0.2902343 0.2146383
0002a0 a6 42 d3 3d 4e 77 7c bd 08 ba 07 3d 6c 3f 57 be
       0.103154466 -0.061637215 0.033136398 -0.21020287
0002b0 9f a5 24 3e 8e 28 dc 3d 8f 3e f8 bd c0 87 d6 bc
       0.16078804 0.10749923 -0.12121307 -0.026187778
0002c0 1f 40 bf 3d 18 93 66 3d 36 d1 01 3e a0 77 15 3e
       0.09338402 0.056292623 0.12677464 0.14596415
0002d0 a2 6c 73 3d 19 8a 9c 3c ea b2 b8 3b 9e 33 ed 3d
       0.059429772 0.019108819 0.0056365626 0.11582111
0002e0 a0 88 b4 bd 8a 39 7c 3d c7 97 88 be fc 81 8d 3e
       -0.08815122 0.06157831 -0.26678297 0.27638233
0002f0 9d 1e 97 3d 9e aa 19 3d e0 0c f4 3c c1 2f 6c be
       0.07378886 0.03751623 0.029791296 -0.23065092
000300 4e 6d 9c 3e a2 88 97 bc df 8c bf bd 12 7f 95 bd
       0.30552143 -0.018497769 -0.09353041 -0.07299627
000310 a9 08 45 be 0c e8 e8 3d 03 4f f5 3d 06 8c 81 bc
       -0.19241585 0.113723844 0.11977961 -0.015813839
000320 87 1e 8a 3d 3e cd b8 bd a5 0f f8 bc 91 fb a3 bd
       0.06744104 -0.09023522 -0.030280897 -0.08006967
000330 5c db 6c bd 29 4f 20 3d dd d0 1f be 3d c3 1d bd
       -0.057826385 0.039137993 -0.15607019 -0.03851627
000340 3b b8 65 3d a3 dd 0a be 1a 47 52 3e 17 8a 81 be
       0.0560839 -0.1356111 0.20534936 -0.25300667
000350 1c 5c 16 3e 4b b0 46 3c f2 ec 30 be 02 1c fd 3d
       0.14683574 0.012126992 -0.17277887 0.12358858
000360 a4 c5 91 be 85 27 46 3e ae 62 7a bc 29 d1 3c bd
       -0.284711 0.19351013 -0.015282316 -0.04609791
000370 59 f1 10 3e 7c 32 2e be f6 de ba 3d 3e 6b 1a 3d
       0.14154567 -0.17011446 0.09124558 0.03769993
000380 de a2 1c bd 5e 8e 55 bd b2 27 0d bc e1 9d 1f bd
       -0.03824126 -0.052137725 -0.008615421 -0.038968924
000390 b8 05 a1 bd ab a5 91 3c b3 08 8b 3d f0 5d 99 bd
       -0.07862419 0.017779192 0.067887686 -0.0748862
0003a0 3b 1f ef bb c0 76 27 bd 7a a8 6a bd 38 b9 99 bd
       -0.007297424 -0.040884733 -0.057289578 -0.07506031
0003b0 16 9d 8f bd 97 0f 2b be 35 c5 b7 bc 43 bf 3e be
       -0.07012384 -0.16705166 -0.022432903 -0.18627648
0003c0 5c 94 66 bd 31 12 d5 bd 19 d6 92 bd 9c dc 05 be
       -0.05629383 -0.1040386 -0.07169742 -0.13072437
0003d0 eb 09 05 be af f7 e7 bc 7f 94 b3 bd 32 74 1a be
       -0.12992065 -0.028316347 -0.08768558 -0.15083387
0003e0 93 01 41 bd 95 7d 20 3d 84 50 1a 3d b7 1b 99 bd
       -0.047120642 0.039182264 0.037674442 -0.07475989
0003f0 35 cf 95 3d 2b 5f de 3c b1 71 f9 bd a9 2e d0 bd
       0.07314912 0.027144989 -0.12179888 -0.1016515

conv1.bias f4 [6]
000000 ce c3 11 3d 36 b4 8e be 46 8e 8b 3c da dc a2 bd
       0.035587125 -0.27871865 0.017035615 -0.0795228
000010 5a 52 60 bc 21 41 06 3e
       -0.013691509 0.13110782

conv2.weight f4 [16, 6, 5, 5]
000000 7a f8 40 3c 21 ea 1c 3e f9 a5 69 3d 23 5d de 3d
       0.011777991 0.15323688 0.05704305 0.10857608
000010 85 9e 66 bd cd 80 13 3e db 17 7d ba fc 04 e7 bb
       -0.05630352 0.14404602 -0.0009654739 -0.0070501547
000020 79 c8 17 3d 37 e3 fe bc 3d 05 1e 3e 15 d6 17 3e
       0.03705642 -0.031114204 0.15431686 0.1482776
000030 79 b5 a7 3d 62 79 85 3d c3 9b 79 3d 28 5b ee 3d
       0.0818891 0.065172926 0.06093956 0.116384804
000040 73 20 e8 3c b9 e5 fe bc 7b ee 43 3d 91 94 2e 3e
       0.028335785 -0.0311154 0.047834855 0.17048861
000050 17 a9 fe 3c 08 97 6f 3d ff eb a9 3d eb ee ee 3d
       0.031086488 0.058493644 0.08296966 0.11666664
000060 aa 9f 7d 3d 94 55 89 bd ed e3 8e bd ea 5a 39 be
       0.061919846 -0.06705776 -0.06977067 -0.18101087
000070 b1 8b 13 be 2b ea 86 bd 7c 62 cd bc 2d 02 20 bd
       -0.14408757 -0.06587633 -0.025071375 -0.039064575
000080 fa c6 68 bd 99 fe ed bc 3b da 19 bd ab 0e a3 bb
       -0.056830384 -0.029052066 -0.037561636 -0.004976114
000090 0f b2 0e 3a 2a a3 e6 3b e2 45 1f bd 8b eb 84 3b
       0.0005443403 0.0070384936 -0.038885005 0.004056399
0000a0 06 d3 48 bd 05 a6 c4 3d 25 16 9b 3d e5 b3 69 bd
       -0.049029373 0.09601978 0.07572583 -0.057056326
0000b0 12 21 0b be 93 bb ed 3c 1d d2 00 bd ae d2 85 bd
       -0.13586834 0.029020106 -0.03145038 -0.065343246
0000c0 b3 d3 30 3c 7e fc 9d 3d 8c 80 c8 3d 7d 24 c4 bc
       0.0107926605 0.07714175 0.09790143 -0.02394318
0000d0 db bf 7e be 68 d2 35 be 56 7a 74 3c c4 8f 88 bd
       -0.24877875 -0.17756045 0.014921745 -0.06668046
0000e0 4f c2 50 be 5c 85 00 bf f5 f3 8f be c6 5c 29 be
       -0.20386623 -0.5020349 -0.28115812 -0.16539297
0000f0 04 00 4f bd 1e 84 6a be d8 db ef be e2 6d b7 be
       -0.050537124 -0.22901961 -0.46847415 -0.3582602
000100 be be 5c bd 69 53 b3 3d 7f 1a b1 bd 3d 1c 74 be
       -0.053892843 0.087561436 -0.08647632 -0.23838897
000110 10 88 60 bd 4b 2b cd 3d 31 18 bc 3d f6 cd 0e 3d
       -0.05481726 0.10018023 0.09184302 0.03486439
000120 0e 30 c1 3d 7c 8b 88 3d 71 f6 43 3e f1 3d 4b 3d
       0.09432994 0.066672295 0.19136979 0.04961962
000130 7c f7 0d bd b2 8d 06 3d b9 36 55 3d 9a 21 d8 3d
       -0.034659848 0.032849975 0.05205414 0.10553284
000140 41 96 42 3c 62 ed eb 3c 09 85 98 3c a0 85 00 bd
       0.011876644 0.028799716 0.018618124 -0.031377435
000150 c3 10 d6 3d 9a 3b 53 3d 31 0c 93 3d 3e c5 23 bd
       0.10452416 0.051570512 0.0718006 -0.039983027
000160 30 c1 60 bd 82 7e db 3d 5a 75 d6 bc 20 f6 68 bd
       -0.054871738 0.10717489 -0.026179004 -0.056875348
000170 62 0e 6c bc b2 d4 6b 3d 67 52 40 bb 5f 59 68 bd
       -0.014407726 0.05757589 -0.002934599 -0.056725856
000180 47 69 d8 3a 65 d5 12 bc 98 6b 69 bd b1 42 8c 3d
       0.0016510867 -0.00896201 -0.056987375 0.06848658
000190 70 69 ad 3c cf dc 81 bd 91 96 9f bd 4c 8b a9 bd
       0.02116844 -0.06340944 -0.0779239 -0.08278522
0001a0 f3 34 e5 3d af e5 8a 3d c2 46 86 bd 13 0f 4d 3d
       0.1119174 0.0678209 -0.06556465 0.050063204
0001b0 c5 8a 16 3d 47 40 1c 3e a6 d4 fc 3d 7b 4d 66 3d
       0.036753435 0.15258895 0.12345247 0.056226235
0001c0 e7 98 1c 3d 66 4b cf 3c 82 5e a0 3d 15 d2 cf 3d
       0.038231757 0.025304507 0.07830526 0.10147492
0001d0 72 bf a5 3d 46 b0 da 3d 15 f5 b2 3d 80 e6 22 3e
       0.08093156 0.10678153 0.08738152 0.15908241
0001e0 f1 30 a4 bc 94 97 ed 3b 84 d6 0f 3e f9 98 fb 3b
       -0.020042868 0.0072507355 0.14046675 0.007678148
0001f0 63 ad ff 3b c8 8d 7a 3d a0 18 0f 3c 43 c1 e7 bc
       0.0078026517 0.06117037 0.008733898 -0.028290397
000200 96 bc 3b bd d3 03 fd bc 44 fd 2a be b8 00 a9 be
       -0.045834146 -0.030885613 -0.16698176 -0.3300836
000210 1c ae 9f be 55 3c bb be 7f 9b 18 be 21 a3 16 be
       -0.31187522 -0.36569467 -0.14903067 -0.14710666
000220 45 5d 34 be 9f 29 8b be 9e 95 80 be 24 f9 85 3c
       -0.17613705 -0.27180192 -0.2511415 0.016354151
000230 77 b1 1f 3e fc 28 2a 3d 93 47 75 3d 5c 0e 1d 3e
       0.15595041 0.041542992 0.05988271 0.15337509
000240 c0 12 d2 3d 7f 92 61 3d bb cf 09 3d 6e 58 de 3a
       0.102574825 0.05507135 0.033645373 0.001696361
000250 79 2b e5 3c 8e f0 6f 3d 42 93 15 3e 58 98 78 bc
       0.027974831 0.05857902 0.14606956 -0.01517304
000260 fb 64 9f bd b3 cb db bd 84 fe 3d 3e 48 70 06 3e
       -0.07782932 -0.10732212 0.18554121 0.1312877
000270 a4 ce 80 3d 77 25 24 be 6c ad 80 be c9 8c 2e 3e
       0.062894136 -0.16029917 -0.2513231 0.17045893
000280 58 26 4c bc 3c f2 21 bc 10 cb b5 bc 79 d5 96 be
       -0.012460314 -0.009884413 -0.022191554 -0.29459742
000290 f4 09 c4 3d 25 92 8c 3b a6 61 29 be 8a 15 bd bc
       0.09572211 0.0042898827 -0.16541156 -0.02308156
0002a0 17 fa fb bd d0 b5 d1 bd 33 f6 a4 3d c1 70 8d bd
       -0.1230356 -0.10239756 0.08054771 -0.06906272
0002b0 9e d2 b9 3b c7 90 fd bc f8 60 f5 bd 18 25 6b 3c
       0.0056708595 -0.030952824 -0.11981386 0.014352106
0002c0 38 7f f4 bd ad a1 17 be c9 72 24 3d 82 2d db 3d
       -0.119383276 -0.14807768 0.04014853 0.10702039
0002d0 3c 71 3e 3d 89 05 58 bd 84 45 39 be e0 f7 3f 3e
       0.046494707 -0.052739654 -0.18092924 0.187469
0002e0 6e 47 c8 3c 3d ab 26 3e ed a2 0f bd da 67 91 be
       0.024448123 0.1627626 -0.035067488 -0.28399545
0002f0 a7 8e 32 3e 04 77 dc 3d dd df 3b bd f1 62 27 be
       0.1743723 0.10764888 -0.04586779 -0.16346337
000300 38 11 68 be 7e 0f d0 3d 66 0d 9f 3d 07 0d 3b 3d
       -0.22662818 0.10159205 0.077662274 0.04566672
000310 30 7c d4 bd 91 61 13 be 80 e2 ab 3d f6 53 bb 3a
       -0.103752494 -0.14392687 0.08392811 0.001429199
000320 19 8f d3 bc 88 3e 59 bd 86 d2 54 3c 87 dc 15 3e
       -0.02582507 -0.05303815 0.012989646 0.14634906
000330 73 51 92 bc b3 01 23 bc d3 db 5b bd f7 c9 a1 bd
       -0.017861104 -0.009949136 -0.053676438 -0.0789985
000340 4d 87 a6 3e d7 0a 97 bd 8c d0 13 bc 20 a7 54 3c
       0.325251 -0.073751144 -0.009021889 0.012979299
000350 c0 7e 7f bd 5b 81 74 3e 85 a0 9b bd ba 72 0f bd
       -0.062376738 0.2387747 -0.07598976 -0.03502152
000360 17 93 8c 3c 11 89 2b 3d f9 8f ee 3d 28 5a 38 bc
       0.017159982 0.041878764 0.11648554 -0.011251964
000370 46 ac ee bd f6 6a 95 3c 03 05 eb 3d d0 b0 c5 3d
       -0.11653952 0.01823948 0.11475565 0.09652865
000380 d9 88 00 3d 25 a8 a9 3d 4e 48 f0 b9 e8 e0 1b bd
       0.031380508 0.08284024 -0.00045830238 -0.038056284
000390 e9 63 0c be fa 54 52 3c 3b 5d 44 bc 21 0a 23 3e
       -0.13709988 0.012837643 -0.0119851185 0.15921833
0003a0 93 64 27 be 5c 8d f7 bd bf 71 3b 3d bd 7f a2 3d
       -0.1634696 -0.12087509 0.045762774 0.079345204
0003b0 7b 61 60 3e ab 8a 2e be 81 23 42 be 01 66 df 3d
       0.21912186 -0.17045085 -0.18958856 0.109081276
0003c0 8d b2 aa 3d 21 92 4e 3e ae df 8e 3b 49 59 00 be
       0.08334837 0.20172931 0.004360161 -0.1253406
0003d0 1e 49 fe bc 8d 73 e4 bc 71 12 23 3d 10 1b f6 3c
       -0.031040724 -0.02788713 0.03981251 0.030042201
0003e0 26 9b 87 bc bc 51 1f be 9d 1b 25 bd 73 d0 68 bd
       -0.016553473 -0.15558523 -0.040309537 -0.056839418
0003f0 33 5b 38 3e d2 75 3a bc 19 5a 49 bd eb cd 25 bd
       0.1800354 -0.01138063 -0.04915819 -0.04047958

conv2.bias f4 [16]
000000 bb 0c 59 3e 22 bb 48 bb 24 63 a9 3e 4a 39 f9 3d
       0.21196263 -0.0030629118 0.3308345 0.1216913
000010 67 4c 8e bd 60 5d 65 3e 5a 1f e8 bd 90 f2 f1 3e
       -0.06948166 0.22398901 -0.11334105 0.47255373
000020 f4 99 06 be c0 98 be bd ff 21 aa be 7a 49 bf bd
       -0.13144666 -0.093064785 -0.33229062 -0.093401864
000030 32 59 49 3e b0 ca 55 3e e7 ca 88 bc 24 32 94 bd
       0.19662932 0.208781 -0.016698314 -0.07236126

fc1.weight f4 [256, 400]
000000 f0 e3 96 be 78 e5 2c bd 0c 42 3c 3e ce b2 ab 3c
       -0.29470778 -0.042211026 0.1838457 0.020959284
000010 04 b8 40 be 75 35 f7 bd 7d 96 80 3d df dc b0 3e
       -0.18820196 -0.12070743 0.06278703 0.3454351
000020 55 47 05 3d 06 d9 a3 be 8b 1c a3 3d 7c 0e 8e bd
       0.03253873 -0.32001513 0.079644285 -0.069363564
000030 19 87 be 3c c4 b9 be 3c 40 23 81 bd 47 06 dc bc
       0.023257779 0.02328194 -0.063055515 -0.026858462
000040 6a 08 9c bb 1c 43 82 bc 78 ef 18 3e 53 fe 91 3d
       -0.004761745 -0.01590114 0.149351 0.071285866
000050 04 11 97 bd 4d 61 23 be ae 5d 5f be f6 63 a4 bc
       -0.07376292 -0.15955086 -0.2181308 -0.020067196
000060 13 95 c9 3d e5 35 11 3e 38 19 b4 bd 9d 99 87 bc
       0.09842887 0.14180715 -0.087938726 -0.01655274
000070 0e cb e8 3d 43 84 16 3e d3 88 21 3e 5d 09 59 3d
       0.113668546 0.14698891 0.1577485 0.052987445
000080 b8 5a 0a 3e 16 8c 19 3e a6 50 4c 3e bd a1 8a 3d
       0.13511169 0.14994845 0.1995264 0.067691304
000090 cb a7 bc 3c a0 73 bc 3d cc 85 c2 3d 5d 2f b0 3c
       0.023029229 0.09201741 0.09498176 0.02150696
0000a0 87 6a 11 3e 57 cc 76 bd 57 e4 33 be 21 ff 18 bd
       0.14200793 -0.060253467 -0.17567573 -0.037352685
0000b0 bb a0 9d 3d 15 ae 29 3e f5 9f c0 3d a6 58 39 3d
       0.076966725 0.16570313 0.094055094 0.045250557
0000c0 f1 e1 82 3c c7 a6 02 3e 76 1d dc 3d bf 04 80 3d
       0.015976878 0.12758933 0.10747807 0.06250905
0000d0 1c 44 14 3d d2 58 65 3e a6 61 5a 3e f7 83 a7 bd
       0.036197767 0.22397164 0.21326312 -0.08179467
0000e0 cb d7 1f be 5b d0 b6 bc a1 20 eb bd 4e 85 06 3d
       -0.15609662 -0.022316149 -0.11480833 0.032841973
0000f0 26 60 bc bd 22 16 e2 bd 75 c7 40 be 22 91 49 bd
       -0.09198026 -0.11039378 -0.18826087 -0.049210675
000100 fc 37 b5 bd 1e 11 4d bd 29 e6 80 bd 32 88 16 bc
       -0.08848569 -0.050065152 -0.062938996 -0.009187745
000110 81 62 fa 3c e6 5d 9f bd df a2 42 bd 23 8c 1e be
       0.030564548 -0.077815816 -0.047518607 -0.15483145
000120 2f 7f 8d bc 46 c6 b1 3c 16 d0 10 3d 68 48 9f 3e
       -0.01727256 0.02170099 0.035354696 0.3110993
000130 9e 3b 36 3e 32 04 0b 3e 3a b3 b3 3c 3c 21 24 bd
       0.1779618 0.13575819 0.021936048 -0.040070757
000140 2e cf b9 bd d9 43 a0 3d 8c 98 cf 3d 6d 25 c4 bd
       -0.090727195 0.07825441 0.10136518 -0.09577451
000150 1b 44 96 3d 0b af 8c bd be ee c3 bd 62 1f 01 3e
       0.07337209 -0.06869324 -0.09567021 0.12609628
000160 45 23 ce 3d e1 30 4b 3e 09 4d eb bc c1 00 65 ba
       0.10065321 0.19842865 -0.028723257 -0.0008735769
000170 06 ab f9 bd 46 74 28 3d 0b 53 25 3e 03 94 89 3e
       -0.12190823 0.041126512 0.1614496 0.26870736
000180 d9 3a 2a 3e 7b 82 b8 3d 38 6e 64 3e 2f 24 68 3e
       0.16624011 0.09009262 0.2230767 0.22670053
000190 c6 83 a4 3d 54 ab 61 3e 26 b2 36 3e 57 91 8e bd
       0.08032946 0.22038013 0.17841396 -0.06961315
0001a0 be 84 58 be f8 98 5e be de 19 5f bb 28 67 03 be
       -0.21144387 -0.2173804 -0.0034042518 -0.1283232
0001b0 71 c2 1c be a2 2d 5b be a2 6d 1c bd a3 65 8e 3b
       -0.15308549 -0.21404126 -0.03819049 0.004345612
0001c0 7f 43 0c 3e 82 68 80 3d e4 93 19 bd 1b 9b a7 3c
       0.13697623 0.06269933 -0.037494555 0.020459702
0001d0 bd 43 d2 3d 7b ca 5b 3e ed 50 67 3e 46 d7 24 bc
       0.10266826 0.21463959 0.22589464 -0.010061091
0001e0 0a 4d 33 3e db 01 e3 3d dd a8 54 3d c4 0e 42 3d
       0.17509857 0.11084338 0.051918853 0.047377363
0001f0 b0 1e dc bd 39 13 a8 3c 19 81 cc 3d a0 1b 81 be
       -0.10748041 0.020516979 0.09985561 -0.2521639
000200 f0 c8 da be 85 29 8e be ef 7f e2 bb 2f 1c 35 3c
       -0.42731428 -0.27766052 -0.0069122235 0.011054083
000210 7c c1 38 3e d6 ed 06 3e 04 32 05 bd 5f 8a 69 bb
       0.18042558 0.13176665 -0.0325184 -0.0035635454
000220 e2 31 25 bc b5 b4 a1 3d a9 86 f2 3c 94 e3 f5 bc
       -0.010082694 0.07895795 0.029605227 -0.030015744
000230 14 96 77 3d f4 5d 4b be 9c 13 3f be f6 7c d4 bd
       0.06044586 -0.19860059 -0.18659824 -0.10375397
000240 86 f2 f7 bd 51 2e 10 3e a1 f2 1f 3e 71 d0 97 bb
       -0.121068045 0.14080168 0.156199 -0.0046330024
000250 e6 0a 24 3e d0 31 10 3e b5 a5 41 bd dc c5 e1 bc
       0.16019782 0.14081502 -0.04727717 -0.027560167
000260 a3 a2 e4 bc 1a 1d 7e 3c 95 e7 16 3d 1a 4f 2d 3d
       -0.027909582 0.015509868 0.036841948 0.042311765
000270 ae f4 01 bd 13 8d d0 3c 71 c5 ae bc 7b e4 f4 bb
       -0.031727485 0.025457894 -0.021334382 -0.007473526
000280 c8 d5 0f bc 4a 33 8d 3c 88 4e 01 3d 72 04 b2 bc
       -0.008778997 0.01723637 0.031569034 -0.021730635
000290 f5 9e 58 bc 51 60 9a 3c 7c 96 7a 3d 19 c1 ee 3c
       -0.013221492 0.018844755 0.06117867 0.02914481
0002a0 24 27 1e 3d f9 c7 99 bc e1 85 ea 3b 67 35 8c 3c
       0.038611546 -0.018772112 0.007157073 0.017115308
0002b0 68 43 96 3b ab 74 27 b9 92 3b 40 3c 8f 57 14 3e
       0.004585672 -0.00015969823 0.011732953 0.14486526
0002c0 30 c1 1d bd f3 86 c8 be f2 61 96 be d6 0e 86 bd
       -0.038514316 -0.39165458 -0.293716 -0.065457985
0002d0 77 4e 79 3e a5 c8 85 bd 84 05 b1 be 4d 41 75 be
       0.24346338 -0.065324105 -0.3457452 -0.23950692
0002e0 7d c6 49 3e 2d d0 1b 3e e1 7e 5e bd 3d 09 2f be
       0.19704624 0.15216132 -0.05432022 -0.17093368
0002f0 96 79 10 3d b8 4d 65 3e 52 30 a7 3d 61 a7 41 3d
       0.035272203 0.22392929 0.08163513 0.047278766
000300 a6 3f b6 bd 43 68 11 bd 8c 9c a9 3d a2 e8 8d 3d
       -0.08898859 -0.035499822 0.08281812 0.06929137
000310 d7 2c 32 3d ca ef 27 be 28 a4 23 be 52 f2 9f bd
       0.043499794 -0.16400066 -0.1598059 -0.07809891
000320 be e2 fc 3d c4 3e 5d 3e 41 80 b6 3c 3e 33 c1 3d
       0.12347935 0.21605974 0.022277953 0.09433602
000330 64 92 89 bc 2a 5d 7f 3b 10 fe d9 3d 5b ad 0f 3e
       -0.016793437 0.0038965442 0.10644162 0.14030974
000340 a1 28 3d 3e bc e0 17 bd 5e 90 9d bd b4 e8 7b bb
       0.1847253 -0.037079558 -0.076935515 -0.0038438262
000350 73 2f 4e 3d b6 eb f1 bc d9 ed 90 bd d5 e8 c2 bd
       0.05033822 -0.029531341 -0.07076616 -0.095170654
000360 e9 7f 42 bd 1b bd 82 3b 4e df b7 bd 9f fa 92 be
       -0.047485266 0.0039898283 -0.08978139 -0.28706834
000370 32 7b ad be 3e 71 2b be 9d 3a 0a be 82 d4 23 be
       -0.33883053 -0.16742417 -0.13498922 -0.15999034
000380 b6 24 84 be 15 a9 e7 bb 40 98 a7 bb be 6d 0b 3d
       -0.25809258 -0.0070697167 -0.005114585 0.034040205
000390 5f e1 cf 3d ef 10 90 3c f5 56 37 be dd b5 cb bc
       0.10150408 0.0175862 -0.17904265 -0.024866993
0003a0 53 c4 51 3e 3f 38 b4 3d 27 5c d0 bd 2e 68 69 be
       0.20485048 0.087997906 -0.10173827 -0.22793648
0003b0 60 d5 38 3d e3 75 72 3e 7e 14 cb 3d 2b 60 fb bd
       0.045125365 0.23677783 0.09916018 -0.12274202
0003c0 29 d1 0b be d0 09 89 bc e9 b8 e5 bc f3 13 93 bd
       -0.13654007 -0.016728312 -0.028042274 -0.071815394
0003d0 98 7d 26 be b9 4b 45 be 4d d8 03 be 18 ff 0a be
       -0.16258848 -0.19267167 -0.12875481 -0.13573873
0003e0 20 e3 61 be 9a fe 40 be 58 9d b9 bd 96 7c 09 3e
       -0.22059298 -0.18847123 -0.09063214 0.13426432
0003f0 88 d9 3e 3e 2b d4 12 3e cb 66 1a be ce b6 36 be
       0.18637669 0.14338748 -0.15078275 -0.17843172

fc1.bias f4 [256]
000000 a7 ce 16 be 84 c0 e7 ba 03 c2 03 be d3 97 37 bd
       -0.14727269 -0.0017681275 -0.12866978 -0.044822525
000010 64 92 3b 3e cf c0 5a bd 33 f5 11 bf 0a fe 3f bd
       0.18317562 -0.053406533 -0.5701477 -0.04687313
000020 b4 10 4f bc d1 12 65 3e b6 22 1c bd 69 3b 87 3e
       -0.01263826 0.22370459 -0.03811904 0.26412514
000030 9d cf 46 bd cd 5a 8f be b2 32 d1 3d 02 99 36 3d
       -0.04853784 -0.27998963 0.102147475 0.044579513
000040 7d 49 8d 3e b8 d9 df 3e b5 f6 8e bd 21 e5 90 3d
       0.2759513 0.43720794 -0.069806494 0.07074953
000050 b0 1a 02 3f 4b 82 c7 b9 13 c8 6d 3e a8 37 a0 3e
       0.5082197 -0.00038053314 0.23220854 0.31292462
000060 ae f9 b4 3c 40 fe 0a bc 27 29 db bb 88 4a 5f 3c
       0.022091713 -0.0084834695 -0.0066882554 0.0136286095
000070 25 d7 29 3e 65 a5 8e 3e e2 5f bf 3e 40 80 9e 3e
       0.16585977 0.2786056 0.3737784 0.30957222
000080 7a 62 5e 3e b1 66 33 bd 93 82 e7 3d 1d dd 0d be
       0.21717253 -0.043799106 0.11304202 -0.1385388
000090 99 07 62 3e d0 d0 b2 3e 38 24 71 3e be 6e 84 3e
       0.22073211 0.34924936 0.23548973 0.2586574
0000a0 81 6c f2 bc 7c a7 da bd 7c 3e 21 be 58 7e 66 bd
       -0.029592754 -0.10676476 -0.15746492 -0.056272835
0000b0 92 92 bf bc d6 c7 af 3c 48 e7 5e 3c e7 29 85 3e
       -0.02338532 0.021457594 0.013604946 0.2600853
0000c0 46 44 2c bd bb d6 02 3f cc 09 04 bd 65 d1 72 3e
       -0.042057298 0.511089 -0.032235906 0.2371269
0000d0 35 42 9a 3c 97 f6 9a bd d7 c6 91 bd 74 d8 03 3f
       0.018830398 -0.075665645 -0.07118004 0.51502156
0000e0 ab 7c d4 bc 89 13 60 bd 34 a9 0f 3c 33 6c 95 bd
       -0.025938353 -0.05470613 0.0087683685 -0.07296028
0000f0 42 38 e6 bb 7d c3 03 3e a9 15 38 3e df a8 ac bc
       -0.0070257494 0.12867542 0.17977013 -0.021076618
000100 f4 f4 85 3e d7 9d 28 bd 5c 85 92 bd 76 64 6f be
       0.26163447 -0.041166153 -0.071543425 -0.23378167
000110 da 5d 4f 3e 96 07 40 bd 7e 91 89 be 0b 07 ab 3e
       0.20250645 -0.046882235 -0.26868814 0.3340381
000120 d7 45 fc bb b0 8e 27 bd 8e 61 18 3d 79 58 3d bd
       -0.0076987552 -0.04090756 0.03720241 -0.046226952
000130 ec 83 c5 3e 4c d5 f0 3d 60 c3 27 bd ab 71 71 bd
       0.3857721 0.11759433 -0.04095781 -0.058946293
000140 7a 8b 7f 3d 0e bc b4 3e 75 40 c8 3e ee 8c 82 be
       0.062388875 0.35299724 0.39111677 -0.25498146
000150 27 d8 67 be 59 56 33 be ad b1 d5 3d 91 28 b8 bd
       -0.2264105 -0.17513408 0.104342796 -0.089921124
000160 5b 88 5f bd 1d 75 c8 3c 14 f5 21 3c a8 fb 07 3d
       -0.054573398 0.024469906 0.009885091 0.033198982
000170 7e 26 2d 3d aa 1d 7e 3b a6 6a d1 3e a3 c2 f8 3e
       0.042273037 0.0038775005 0.4090168 0.48585996
000180 f8 f3 85 3e 03 53 11 bd b2 f2 b1 3e ca 8a 30 be
       0.26162696 -0.035479557 0.34755474 -0.17240444
000190 40 ac 22 bc 6a 4f d5 bd bc b7 fd bc 99 bc 83 bd
       -0.009928763 -0.10415538 -0.0309714 -0.064324565
0001a0 a9 35 ba bd fb af c2 3c 11 35 93 bd af 47 91 3e
       -0.09092266 0.023765555 -0.07187856 0.28375003
0001b0 30 30 cc 3b 08 7a 15 3e 26 74 32 3d e5 19 24 bd
       0.0062313303 0.14597332 0.0435678 -0.040063757
0001c0 44 f4 74 3c 34 e9 70 bd c3 2a 9b 3e ca 4d 43 be
       0.014950816 -0.05881615 0.30306062 -0.19072643
0001d0 c8 33 26 be fd f4 44 be 91 61 89 3c 20 ab 02 bd
       -0.1623069 -0.1923408 0.016770156 -0.03190148
0001e0 c3 2f f7 bd b8 e2 1a 3e a2 82 7a 3d fd 29 74 3e
       -0.12069657 0.15125549 0.061159737 0.23844142
0001f0 fb d2 3b bd e9 e8 db 3d e1 4e ff bc 62 e4 b9 3e
       -0.045855504 0.107377835 -0.031165542 0.36307055
000200 63 e6 99 bd d5 73 a5 3e 7b ac 0c 3e e8 e7 8d 3e
       -0.07514646 0.32314935 0.13737671 0.27715993
000210 3d ba 80 3e b3 1f ec 3d 9b 52 46 3c f1 72 47 3e
       0.2514209 0.11529484 0.012104656 0.1947744
000220 4b fa f9 3e 46 81 f3 bd f3 7f 4f 3e d4 31 18 bd
       0.4882377 -0.11889891 0.20263653 -0.037156895
000230 44 67 93 ba d2 55 2c be 17 d0 7f 3e f1 9d cf 3e
       -0.0011245986 -0.16829613 0.24981724 0.40550187
000240 63 12 ed be d6 3d 92 bd 29 88 9a 3d 02 d8 c5 bc
       -0.4630309 -0.071407005 0.07545502 -0.024150852
000250 04 6c 81 3e af 35 87 bb cd 53 15 bd b2 02 f3 bc
       0.25277722 -0.0041262726 -0.03645687 -0.029664371
000260 f5 25 15 3f 66 e4 d8 3e 70 69 9f 3d 85 30 35 bd
       0.5826104 0.42361754 0.077837825 -0.044235725
000270 08 3b 43 bd a4 64 86 3d 6a 69 4c 3d 9f 5c 43 3e
       -0.04766372 0.065621644 0.04990522 0.19078301
000280 67 99 24 3c d4 20 41 3c bf 7e ee 3e 17 4a cd 3d
       0.01004634 0.011787612 0.46581075 0.10023897
000290 55 1e 13 3c d8 de 35 3e a5 fc 46 be bb 9f a3 b9
       0.0089794 0.1776079 -0.19432314 -0.0003120879
0002a0 d8 cf c0 be 6c 4c 20 bd c0 54 2d 3d 8b 2a c1 bc
       -0.37658572 -0.03913538 0.042317152 -0.023579856
0002b0 19 2e 22 be 37 4c ca be 63 b4 0f 3e 5d a8 28 bd
       -0.15837897 -0.39511272 0.14033656 -0.04117619
0002c0 18 02 a7 3d 9d ef ec 3d 5a fa 05 be 15 3d a3 3e
       0.08154696 0.1156914 -0.13083783 0.3188254
0002d0 b1 a4 90 bd fe 92 ab 3c 76 98 53 be b6 e8 64 bd
       -0.070626624 0.020944115 -0.20663628 -0.055885993
0002e0 11 40 1c 3e e6 2f fe 3d 22 5e e1 bc 62 ee 40 bd
       0.15258814 0.1241148 -0.027510706 -0.04710234
0002f0 3a 91 99 3e 7c 07 42 3b 0f 8e 8a bd 08 15 74 bd
       0.29993612 0.0029606512 -0.06765377 -0.05959037
000300 8f bd a3 3d a5 6a 01 bd 30 0b 2a bd 2e 4c 9f 3e
       0.0799514 -0.031595845 -0.041514575 0.31112808
000310 30 ab 82 3e d8 8f 60 3d c0 98 e5 3b 05 87 6c 3e
       0.2552123 0.05482468 0.0070067346 0.23098381
000320 c5 b7 3d 3e 20 8b f8 bc e5 7f 0f be fa 7e b7 bb
       0.18527134 -0.030339777 -0.14013632 -0.0055998536
000330 8b 65 6a bb c6 58 93 bd 41 96 2f be 76 a7 ff 3d
       -0.003576609 -0.071946666 -0.17147161 0.124831125
000340 ba 69 aa 3e be 24 1a bc 06 9a fa bc 4e a7 5a be
       0.33283788 -0.009408174 -0.030591022 -0.21352884
000350 1e 01 49 bc 61 60 9d 3e 1c 7a e9 bc 23 41 05 3e
       -0.012268333 0.30737594 -0.02850061 0.13013129
000360 b8 1f 14 3d 8f ee c0 3e 98 b0 0b bd 71 83 b0 3c
       0.03616306 0.37682006 -0.03410396 0.021547051
000370 a6 b4 57 bd 87 22 13 3e f4 75 a7 3d 4e c2 44 3e
       -0.052662514 0.1436864 0.08176795 0.19214746
000380 bf 4f cc 3e 3a 9e bd bc ce 5a 3a 3d c2 f8 07 bc
       0.3990459 -0.023146737 0.045496754 -0.008299055
000390 8f 1b 9c 3e 04 6a 9e bd 09 05 a3 3c 87 c6 96 bc
       0.30489776 -0.077350646 0.019899862 -0.018405212
0003a0 56 e2 d9 bb 3a e0 2f bd 1f 54 93 bd 30 3b 15 3f
       -0.006649296 -0.04293845 -0.07193779 0.5829344
0003b0 2e 7a 3a bd 74 14 ad 3e 65 3b 02 3f 11 ce 7b bd
       -0.045526676 0.33804667 0.5087188 -0.061475817
0003c0 1f 3e 85 3d 3a 8b 29 bb ad 25 4c bd 16 da 87 3e
       0.06505989 -0.002587034 -0.049840618 0.26533574
0003d0 08 9d 26 bd e4 1a 95 be 59 dd d8 bb 88 1e 52 bd
       -0.0406771 -0.29122078 -0.0066181836 -0.051298648
0003e0 84 e7 2c bd 16 ee 57 3e d3 51 68 bd e0 0e ae bc
       -0.042212978 0.21086916 -0.05671866 -0.021247327
0003f0 cc e7 8c 3e de 78 83 3e 75 fb 66 bc 61 7d eb 3d
       0.27520597 0.25678152 -0.014098038 0.114985235

fc2.weight f4 [10, 256]
000000 16 9d a2 bd 21 4d 88 3d 3f ae df 3d b7 65 1b bb
       -0.07940118 0.06655336 0.10921907 -0.002371175
000010 50 50 c4 3d b1 a3 39 bd 87 aa c8 3d aa 57 9e bc
       0.09585631 -0.045322124 0.097981505 -0.01932891
000020 12 e3 57 bd a9 7d a0 bd 83 0f 83 3a a8 b5 2f be
       -0.052706786 -0.07836468 0.000999913 -0.1715914
000030 db b8 77 bc 3c 4f 9d 3d 1c 7d c9 3d 59 c6 8f 3d
       -0.015119757 0.076811284 0.09838316 0.07020254
000040 ae 1d 7a be ec 66 a3 be ab be bb bd 74 46 77 3d
       -0.24425384 -0.3191446 -0.091672264 0.060369924
000050 8e 2b 1c be c1 bb 44 bd fd 92 9e 3b d3 63 80 3d
       -0.1525099 -0.04803062 0.0048392997 0.0626904
000060 ae 70 22 3d e7 29 13 3d 8d 6f 04 3d 14 fb d0 3c
       0.03965824 0.035928633 0.032332946 0.025510348
000070 54 05 02 3e 9c 82 10 3e 5c 50 90 bd 2a cc 0b be
       0.12697345 0.14112324 -0.07046577 -0.13652101
000080 e8 1d c9 bd 43 11 13 3c b2 9f 73 bd a3 b9 7d 3c
       -0.09820157 0.0089762835 -0.05947847 0.015486154
000090 eb f0 e4 3d c7 f8 b4 3d 9b b5 47 be ed bf 82 3d
       0.11178764 0.08836513 -0.1950287 0.06384263
0000a0 7a 56 39 bc 10 95 13 bd e0 26 4f bd 16 46 c2 3a
       -0.0113121215 -0.03603083 -0.050574183 0.0014821913
0000b0 de 22 0e bd e7 28 48 bd 42 83 32 3b d6 c7 2f be
       -0.03470122 -0.048867133 0.002723888 -0.17166075
0000c0 8c e6 cf 3b 8f 8e 39 3e 1b 4a 7b bd 5d 45 9b bd
       0.006344622 0.18120788 -0.06134997 -0.07581589
0000d0 9e 95 0c bd 48 1c 43 3d 45 cc 68 bd 5f d2 63 bd
       -0.034322374 0.047634393 -0.05683543 -0.055620547
0000e0 da eb 76 3d 93 d4 01 bd ed 00 12 bc 02 1d 53 3b
       0.06028352 -0.031696867 -0.008911354 0.0032213335
0000f0 9f 54 31 3b 9b d3 e4 3d 0a 89 a3 bd 87 e3 c1 3c
       0.0027058495 0.11173173 -0.079851225 0.023668064
000100 15 e3 b1 bd 5b 4f 73 bd 25 7a f0 bc d0 71 de 3d
       -0.086858906 -0.05940185 -0.029355118 0.10861552
000110 0d 5e 4c be a6 6d 10 bc 0a 91 2a 3d c3 6d d6 3c
       -0.19957753 -0.008815205 0.041642226 0.026175385
000120 c9 05 ae bd 83 bd 9e be 3d 1c ea bd 31 2b e9 bc
       -0.08497197 -0.3100396 -0.11431167 -0.028462978
000130 5a d9 23 3e d6 8f 14 be 8b c9 9c bc 7b c5 b0 bc
       0.16000882 -0.14507994 -0.019139072 -0.021578541
000140 6d 0c 99 3d 38 1c 2a bd 50 32 87 3d 4d e8 54 bd
       0.07473073 -0.041530818 0.06601393 -0.05197935
000150 b7 92 be 3c 83 25 dd bd 50 92 9c 3c 54 7d 36 bc
       0.023263318 -0.107981704 0.019112736 -0.011138279
000160 8a a6 70 bc 55 9c 92 bd 90 e2 e0 3c 03 e5 c5 3c
       -0.0146881435 -0.07158724 0.027451783 0.024157053
000170 32 8b 2d be d2 d2 a8 bc d7 a2 6f be 19 96 aa 3d
       -0.1694763 -0.02060834 -0.23401962 0.0832941
000180 d8 43 2d be c2 ff 9b 3d cb d6 1b bd d2 8a f7 bd
       -0.16920412 0.07617141 -0.03804664 -0.12087025
000190 4e 8f 89 3d 7d 43 d9 bd f5 a2 33 3d 8d 08 89 bd
       0.06716786 -0.106085755 0.04385658 -0.06691084
0001a0 9c 2e 63 3c 71 ab a5 3c 66 f9 6b 3c c0 6e a8 3e
       0.013866093 0.020223351 0.014402723 0.32896996
0001b0 09 c5 07 bd cf 9d 9b 3d ef d8 95 be d1 3f 47 3d
       -0.03314689 0.07598459 -0.2926707 0.048644844
0001c0 db 50 50 38 db 5f 72 bb 24 91 e9 bd 48 6c 2e 3e
       4.9666367e-05 -0.0036983404 -0.114046365 0.17033494
0001d0 69 2e 4a 3d c5 ac 8d 3e 33 95 50 be 1f a8 19 3d
       0.049360666 0.27670875 -0.20369415 0.03751385
0001e0 23 60 f0 3d 34 2f 30 3c 00 0d a3 3d 0d 3c c4 bd
       0.117370866 0.010753442 0.07961464 -0.09581766
0001f0 54 f2 55 bd a4 02 f2 3d b7 d0 6d 3d b5 64 3b be
       -0.052233055 0.1181691 0.058060374 -0.18300135
000200 6a 25 8f bc ed da a3 3d d8 3d 0e be a8 2b 3c bb
       -0.017473895 0.08000741 -0.13890779 -0.0028712545
000210 47 77 31 bd b1 70 9f bc a6 ef aa 3d 3e bf eb bb
       -0.043326642 -0.019462915 0.083464906 -0.0071944287
000220 2c 17 78 be 88 87 d1 3c 47 1a 4a be 0b 4a 28 3c
       -0.2422759 0.025577322 -0.19736587 0.0102715595
000230 4c cd 71 bc 9f 1b d5 3d c1 55 1e bc 17 b5 85 be
       -0.014758419 0.10405659 -0.009664 -0.26114723
000240 eb 9d 1d 3e 60 56 8e bd 43 46 64 3d 99 c2 57 bc
       0.15392272 -0.069500685 0.05573107 -0.013168954
000250 3f 40 83 bc c5 c4 8d 3c bc 07 a8 bd ee 7c 94 3c
       -0.016021846 0.017305741 -0.082046 0.018125977
000260 f9 f3 6a be bf 5b 9d be df 89 a5 bd c9 e2 38 bc
       -0.2294463 -0.3073406 -0.080829374 -0.011284539
000270 48 77 b7 3c b6 9b 3d be 97 d0 5d 3d c2 20 30 3d
       0.022395745 -0.1851643 0.054154005 0.04299999
000280 34 3e 13 bd 36 40 6e bd 06 a7 6b be 83 d2 59 3d
       -0.035947993 -0.058166705 -0.23012933 0.053179275
000290 db e9 66 3c 75 e6 6a 3e dc ca 29 3d 90 e8 2d bd
       0.014093841 0.22939475 0.041453227 -0.042458117
0002a0 13 66 34 3d e7 5c 97 3d 78 03 ab bd 8f 53 b0 3d
       0.044042658 0.073907666 -0.08350271 0.086096875
0002b0 b7 d1 65 3d 3c 12 ec 3d 63 ab c9 3d ad 7d 9f bb
       0.056108203 0.115269154 0.098471425 -0.0048672766
0002c0 ac a2 27 3d f2 44 e5 3d 6c 64 cf 3c 79 10 11 3e
       0.04092662 0.11194791 0.02531644 0.1416644
0002d0 de 31 13 bd a0 35 41 bd 8c d7 f7 3d ac 64 91 bc
       -0.03593623 -0.04717028 0.12101659 -0.0177482
0002e0 8d ba a4 be 25 c0 34 3e 48 8e 49 3d 4c a8 97 3d
       -0.32173577 0.17651422 0.049207956 0.07405147
0002f0 73 df c2 bd da 82 c8 3c 5d c5 a3 bc 6e 1c 18 bd
       -0.09515276 0.024476457 -0.019991571 -0.037136488
000300 f0 77 2d bd 8e b9 08 3a 7a 7c aa bc 7d aa 8a 3d
       -0.04235071 0.0005215638 -0.020811308 0.06770799
000310 b2 c4 69 be 1e 45 7a 3d 2f 9d f1 bc dd c2 8f 3d
       -0.2282894 0.06110107 -0.029493896 0.07019589
000320 eb ee 96 be 9c 63 f8 3c 2f 26 84 bc 48 5c ee 3c
       -0.29479155 0.030320935 -0.016131489 0.029096738
000330 b1 e2 26 3d 7a 18 ab bc 7e 6b 01 3e ea 8d 0c 3e
       0.040743534 -0.020885695 0.12638661 0.13726011
000340 43 33 85 bd c9 a7 48 bc e2 d7 94 bd ea c3 1a 3e
       -0.06503918 -0.012247034 -0.07267739 0.15113798
000350 dc 21 62 3d 65 0b f5 bd 3a 5c cc 3b 87 56 a0 be
       0.055208072 -0.11965064 0.00623658 -0.31316015
000360 6c 82 e0 3d 7a 4c 1d bd aa 23 98 bd bf ed c4 bc
       0.10962376 -0.03840301 -0.074286774 -0.024039147
000370 d2 10 73 3c 47 bb 83 be e7 ac 39 be 9c b2 16 3e
       0.014835553 -0.2572882 -0.18132363 0.14716572
000380 39 3a d2 be 3a 07 fe 3b 12 d6 a2 3d de 60 90 bd
       -0.41060045 0.0077523263 0.07950987 -0.07049726
000390 97 22 d2 bd 1b d0 ec ba b6 22 59 3e ad 64 dd bc
       -0.10260504 -0.0018067391 0.21204647 -0.027025545
0003a0 14 46 e6 bd 50 8f 91 bc da f4 47 bd e3 8e a2 bd
       -0.11243835 -0.017768532 -0.048817493 -0.0793741
0003b0 99 37 74 bd de 58 f6 3d e9 4a 55 be 51 32 e5 ba
       -0.059623335 0.12028669 -0.20829357 -0.0017486309
0003c0 13 f9 b7 bd 5f 3a 35 bd 59 22 08 bd 6d 3d b5 3d
       -0.08983054 -0.04424512 -0.03323588 0.08849607
0003d0 5b b2 08 bd 91 92 1d 3c 3d dd 07 be ac 9d 38 3d
       -0.033373218 0.009617464 -0.1326799 0.045072243
0003e0 38 07 00 3d 12 61 da bd cc f3 af 3c 90 5c 93 3c
       0.031256884 -0.10663046 0.021478556 0.017988473
0003f0 ee 80 ff 3d 3c 4d 0a 3e 19 e6 b1 bb ed 9c 01 3e
       0.12475763 0.13506025 -0.005429041 0.12657519

fc2.bias f4 [10]
000000 44 36 ad be b3 f0 50 be b9 6f a0 be 9e 23 85 3e
       -0.33830464 -0.2040432 -0.31335238 0.26003736
000010 83 0d c7 3e c9 6a 39 bd 30 89 5d 3e 22 6a ef bd
       0.38877496 -0.045267854 0.21634364 -0.11690165
000020 7a b4 d8 3b 5e f0 94 3e
       0.0066133114 0.29089636
